…
nbs=8, num_train_points=128, num_workers=4, patch_size=1000, resolutions=['10000_poisson', '30000_poisson', '50000_poisson'], score_net_hidden_dim=128, score_net_num_blocks=4, seed=2020, supervised=True, tag=None, train_batch_size=32, val_freq=2000, val_noise=0.015, val_num_visualize=4, val_upsample_rate=4, weight_decay=0)
[2025-07-04 15:51:01,253::train::INFO] Loading datasets
[2025-07-04 15:51:27,219::train::INFO] Building model...
[2025-07-04 15:51:38,309::train::INFO] DenoiseNet(
  (feature_net): FeatureExtractionWithResLFE(
    (transforms): ModuleList(
      (0): FCLayer(
        (linear): Linear(in_features=3, out_features=24, bias=True)
        (activation): Identity()
      )
      (1): FCLayer(
        (linear): Linear(in_features=60, out_features=24, bias=True)
        (activation): ReLU()
      )
      (2): FCLayer(
        (linear): Linear(in_features=60, out_features=24, bias=True)
        (activation): ReLU()
      )
      (3): FCLayer(
        (linear): Linear(in_features=60, out_features=24, bias=True)
        (activation): ReLU()
      )
    )
    (convs): ModuleList(
      (0): DenseEdgeConv(
        (layer_first): FCLayer(
          (linear): Linear(in_features=24, out_features=12, bias=True)
          (activation): ReLU()
        )
        (layer_last): FCLayer(
          (linear): Linear(in_features=48, out_features=12, bias=True)
          (activation): Identity()
        )
        (layers): ModuleList(
          (0): FCLayer(
            (linear): Linear(in_features=36, out_features=12, bias=True)
            (activation): ReLU()
          )
        )
        (aggr): Aggregator()
      )
      (1): DenseEdgeConv(
        (layer_first): FCLayer(
          (linear): Linear(in_features=72, out_features=12, bias=True)
          (activation): ReLU()
        )
        (layer_last): FCLayer(
          (linear): Linear(in_features=48, out_features=12, bias=True)
          (activation): Identity()
        )
        (layers): ModuleList(
          (0): FCLayer(
            (linear): Linear(in_features=36, out_features=12, bias=True)
            (activation): ReLU()
          )
        )
        (aggr): Aggregator()
      )
      (2): DenseEdgeConv(
        (layer_first): FCLayer(
          (linear): Linear(in_features=72, out_features=12, bias=True)
          (activation): ReLU()
        )
        (layer_last): FCLayer(
          (linear): Linear(in_features=48, out_features=12, bias=True)
          (activation): Identity()
        )
        (layers): ModuleList(
          (0): FCLayer(
            (linear): Linear(in_features=36, out_features=12, bias=True)
            (activation): ReLU()
          )
        )
        (aggr): Aggregator()
      )
      (3): DenseEdgeConv(
        (layer_first): FCLayer(
          (linear): Linear(in_features=72, out_features=12, bias=True)
          (activation): ReLU()
        )
        (layer_last): FCLayer(
          (linear): Linear(in_features=48, out_features=12, bias=True)
          (activation): Identity()
        )
        (layers): ModuleList(
          (0): FCLayer(
            (linear): Linear(in_features=36, out_features=12, bias=True)
            (activation): ReLU()
          )
        )
        (aggr): Aggregator()
      )
    )
    (reslfes): ModuleList(
      (0): ResLFE_Block(
        (VFRs): ModuleList(
          (0): VFR(
            (linear): Linear(in_features=60, out_features=60, bias=False)
            (bn): BatchNorm1d(60, eps=1e-05, momentum=0.1, affine=True, track_running_stats=True)
          )
          (1): VFR(
            (linear): Linear(in_features=60, out_features=60, bias=False)
            (bn): BatchNorm1d(60, eps=1e-05, momentum=0.1, affine=True, track_running_stats=True)
          )
          (2): VFR(
            (linear): Linear(in_features=60, out_features=60, bias=False)
            (bn): BatchNorm1d(60, eps=1e-05, momentum=0.1, affine=True, track_running_stats=True)
          )
          (3): VFR(
            (linear): Linear(in_features=60, out_features=60, bias=False)
            (bn): BatchNorm1d(60, eps=1e-05, momentum=0.1, affine=True, track_running_stats=True)
          )
          (4): VFR(
            (linear): Linear(in_features=60, out_features=60, bias=False)
            (bn): BatchNorm1d(60, eps=1e-05, momentum=0.1, affine=True, track_running_stats=True)
          )
          (5): VFR(
            (linear): Linear(in_features=60, out_features=60, bias=False)
            (bn): BatchNorm1d(60, eps=1e-05, momentum=0.1, affine=True, track_running_stats=True)
          )
          (6): VFR(
            (linear): Linear(in_features=60, out_features=60, bias=False)
            (bn): BatchNorm1d(60, eps=1e-05, momentum=0.1, affine=True, track_running_stats=True)
          )
          (7): VFR(
            (linear): Linear(in_features=60, out_features=60, bias=False)
            (bn): BatchNorm1d(60, eps=1e-05, momentum=0.1, affine=True, track_running_stats=True)
          )
          (8): VFR(
            (linear): Linear(in_features=60, out_features=60, bias=False)
            (bn): BatchNorm1d(60, eps=1e-05, momentum=0.1, affine=True, track_running_stats=True)
          )
          (9): VFR(
            (linear): Linear(in_features=60, out_features=60, bias=False)
            (bn): BatchNorm1d(60, eps=1e-05, momentum=0.1, affine=True, track_running_stats=True)
          )
          (10): VFR(
            (linear): Linear(in_features=60, out_features=60, bias=False)
            (bn): BatchNorm1d(60, eps=1e-05, momentum=0.1, affine=True, track_running_stats=True)
          )
          (11): VFR(
            (linear): Linear(in_features=60, out_features=60, bias=False)
            (bn): BatchNorm1d(60, eps=1e-05, momentum=0.1, affine=True, track_running_stats=True)
          )
          (12): VFR(
            (linear): Linear(in_features=60, out_features=60, bias=False)
            (bn): BatchNorm1d(60, eps=1e-05, momentum=0.1, affine=True, track_running_stats=True)
          )
          (13): VFR(
            (linear): Linear(in_features=60, out_features=60, bias=False)
            (bn): BatchNorm1d(60, eps=1e-05, momentum=0.1, affine=True, track_running_stats=True)
          )
          (14): VFR(
            (linear): Linear(in_features=60, out_features=60, bias=False)
            (bn): BatchNorm1d(60, eps=1e-05, momentum=0.1, affine=True, track_running_stats=True)
          )
          (15): VFR(
            (linear): Linear(in_features=60, out_features=60, bias=False)
            (bn): BatchNorm1d(60, eps=1e-05, momentum=0.1, affine=True, track_running_stats=True)
          )
          (16): VFR(
            (linear): Linear(in_features=60, out_features=60, bias=False)
            (bn): BatchNorm1d(60, eps=1e-05, momentum=0.1, affine=True, track_running_stats=True)
          )
          (17): VFR(
            (linear): Linear(in_features=60, out_features=60, bias=False)
            (bn): BatchNorm1d(60, eps=1e-05, momentum=0.1, affine=True, track_running_stats=True)
          )
          (18): VFR(
            (linear): Linear(in_features=60, out_features=60, bias=False)
            (bn): BatchNorm1d(60, eps=1e-05, momentum=0.1, affine=True, track_running_stats=True)
          )
          (19): VFR(
            (linear): Linear(in_features=60, out_features=60, bias=False)
            (bn): BatchNorm1d(60, eps=1e-05, momentum=0.1, affine=True, track_running_stats=True)
          )
        )
        (mlp): FFN(
          (ffn): Sequential(
            (0): Linear(in_features=60, out_features=120, bias=True)
            (1): ReLU()
            (2): Linear(in_features=120, out_features=60, bias=False)
            (3): BatchNorm1d(60, eps=1e-05, momentum=0.1, affine=True, track_running_stats=True)
          )
        )
        (FFNs): ModuleList(
          (0): FFN(
            (ffn): Sequential(
              (0): Linear(in_features=60, out_features=120, bias=True)
              (1): ReLU()
              (2): Linear(in_features=120, out_features=60, bias=False)
              (3): BatchNorm1d(60, eps=1e-05, momentum=0.1, affine=True, track_running_stats=True)
            )
          )
          (1): FFN(
            (ffn): Sequential(
              (0): Linear(in_features=60, out_features=120, bias=True)
              (1): ReLU()
              (2): Linear(in_features=120, out_features=60, bias=False)
              (3): BatchNorm1d(60, eps=1e-05, momentum=0.1, affine=True, track_running_stats=True)
            )
          )
          (2): FFN(
            (ffn): Sequential(
              (0): Linear(in_features=60, out_features=120, bias=True)
              (1): ReLU()
              (2): Linear(in_features=120, out_features=60, bias=False)
              (3): BatchNorm1d(60, eps=1e-05, momentum=0.1, affine=True, track_running_stats=True)
            )
          )
          (3): FFN(
            (ffn): Sequential(
              (0): Linear(in_features=60, out_features=120, bias=True)
              (1): ReLU()
              (2): Linear(in_features=120, out_features=60, bias=False)
              (3): BatchNorm1d(60, eps=1e-05, momentum=0.1, affine=True, track_running_stats=True)
            )
          )
          (4): FFN(
            (ffn): Sequential(
              (0): Linear(in_features=60, out_features=120, bias=True)
              (1): ReLU()
              (2): Linear(in_features=120, out_features=60, bias=False)
              (3): BatchNorm1d(60, eps=1e-05, momentum=0.1, affine=True, track_running_stats=True)
            )
          )
          (5): FFN(
            (ffn): Sequential(
              (0): Linear(in_features=60, out_features=120, bias=True)
              (1): ReLU()
              (2): Linear(in_features=120, out_features=60, bias=False)
              (3): BatchNorm1d(60, eps=1e-05, momentum=0.1, affine=True, track_running_stats=True)
            )
          )
          (6): FFN(
            (ffn): Sequential(
              (0): Linear(in_features=60, out_features=120, bias=True)
              (1): ReLU()
              (2): Linear(in_features=120, out_features=60, bias=False)
              (3): BatchNorm1d(60, eps=1e-05, momentum=0.1, affine=True, track_running_stats=True)
            )
          )
          (7): FFN(
            (ffn): Sequential(
              (0): Linear(in_features=60, out_features=120, bias=True)
              (1): ReLU()
              (2): Linear(in_features=120, out_features=60, bias=False)
              (3): BatchNorm1d(60, eps=1e-05, momentum=0.1, affine=True, track_running_stats=True)
            )
          )
          (8): FFN(
            (ffn): Sequential(
              (0): Linear(in_features=60, out_features=120, bias=True)
              (1): ReLU()
              (2): Linear(in_features=120, out_features=60, bias=False)
              (3): BatchNorm1d(60, eps=1e-05, momentum=0.1, affine=True, track_running_stats=True)
            )
          )
          (9): FFN(
            (ffn): Sequential(
              (0): Linear(in_features=60, out_features=120, bias=True)
              (1): ReLU()
              (2): Linear(in_features=120, out_features=60, bias=False)
              (3): BatchNorm1d(60, eps=1e-05, momentum=0.1, affine=True, track_running_stats=True)
            )
          )
          (10): FFN(
            (ffn): Sequential(
              (0): Linear(in_features=60, out_features=120, bias=True)
              (1): ReLU()
              (2): Linear(in_features=120, out_features=60, bias=False)
              (3): BatchNorm1d(60, eps=1e-05, momentum=0.1, affine=True, track_running_stats=True)
            )
          )
          (11): FFN(
            (ffn): Sequential(
              (0): Linear(in_features=60, out_features=120, bias=True)
              (1): ReLU()
              (2): Linear(in_features=120, out_features=60, bias=False)
              (3): BatchNorm1d(60, eps=1e-05, momentum=0.1, affine=True, track_running_stats=True)
            )
          )
          (12): FFN(
            (ffn): Sequential(
              (0): Linear(in_features=60, out_features=120, bias=True)
              (1): ReLU()
              (2): Linear(in_features=120, out_features=60, bias=False)
              (3): BatchNorm1d(60, eps=1e-05, momentum=0.1, affine=True, track_running_stats=True)
            )
          )
          (13): FFN(
            (ffn): Sequential(
              (0): Linear(in_features=60, out_features=120, bias=True)
              (1): ReLU()
              (2): Linear(in_features=120, out_features=60, bias=False)
              (3): BatchNorm1d(60, eps=1e-05, momentum=0.1, affine=True, track_running_stats=True)
            )
          )
          (14): FFN(
            (ffn): Sequential(
              (0): Linear(in_features=60, out_features=120, bias=True)
              (1): ReLU()
              (2): Linear(in_features=120, out_features=60, bias=False)
              (3): BatchNorm1d(60, eps=1e-05, momentum=0.1, affine=True, track_running_stats=True)
            )
          )
          (15): FFN(
            (ffn): Sequential(
              (0): Linear(in_features=60, out_features=120, bias=True)
              (1): ReLU()
              (2): Linear(in_features=120, out_features=60, bias=False)
              (3): BatchNorm1d(60, eps=1e-05, momentum=0.1, affine=True, track_running_stats=True)
            )
          )
          (16): FFN(
            (ffn): Sequential(
              (0): Linear(in_features=60, out_features=120, bias=True)
              (1): ReLU()
              (2): Linear(in_features=120, out_features=60, bias=False)
              (3): BatchNorm1d(60, eps=1e-05, momentum=0.1, affine=True, track_running_stats=True)
            )
          )
          (17): FFN(
            (ffn): Sequential(
              (0): Linear(in_features=60, out_features=120, bias=True)
              (1): ReLU()
              (2): Linear(in_features=120, out_features=60, bias=False)
              (3): BatchNorm1d(60, eps=1e-05, momentum=0.1, affine=True, track_running_stats=True)
            )
          )
          (18): FFN(
            (ffn): Sequential(
              (0): Linear(in_features=60, out_features=120, bias=True)
              (1): ReLU()
              (2): Linear(in_features=120, out_features=60, bias=False)
              (3): BatchNorm1d(60, eps=1e-05, momentum=0.1, affine=True, track_running_stats=True)
            )
          )
          (19): FFN(
            (ffn): Sequential(
              (0): Linear(in_features=60, out_features=120, bias=True)
              (1): ReLU()
              (2): Linear(in_features=120, out_features=60, bias=False)
              (3): BatchNorm1d(60, eps=1e-05, momentum=0.1, affine=True, track_running_stats=True)
            )
          )
        )
        (drop_paths): ModuleList(
          (0): DropPath(drop_prob=0.000)
          (1): DropPath(drop_prob=0.005)
          (2): DropPath(drop_prob=0.011)
          (3): DropPath(drop_prob=0.016)
          (4): DropPath(drop_prob=0.021)
          (5): DropPath(drop_prob=0.026)
          (6): DropPath(drop_prob=0.032)
…
          (8): DropPath(drop_prob=0.042)
          (9): DropPath(drop_prob=0.047)
          (10): DropPath(drop_prob=0.053)
          (11): DropPath(drop_prob=0.058)
          (12): DropPath(drop_prob=0.063)
          (13): DropPath(drop_prob=0.068)
          (14): DropPath(drop_prob=0.074)
          (15): DropPath(drop_prob=0.079)
          (16): DropPath(drop_prob=0.084)
          (17): DropPath(drop_prob=0.089)
          (18): DropPath(drop_prob=0.095)
          (19): DropPath(drop_prob=0.100)
        )
      )
      (1): ResLFE_Block(
        (VFRs): ModuleList(
          (0): VFR(
            (linear): Linear(in_features=60, out_features=60, bias=False)
            (bn): BatchNorm1d(60, eps=1e-05, momentum=0.1, affine=True, track_running_stats=True)
          )
          (1): VFR(
            (linear): Linear(in_features=60, out_features=60, bias=False)
            (bn): BatchNorm1d(60, eps=1e-05, momentum=0.1, affine=True, track_running_stats=True)
          )
          (2): VFR(
            (linear): Linear(in_features=60, out_features=60, bias=False)
            (bn): BatchNorm1d(60, eps=1e-05, momentum=0.1, affine=True, track_running_stats=True)
          )
          (3): VFR(
            (linear): Linear(in_features=60, out_features=60, bias=False)
            (bn): BatchNorm1d(60, eps=1e-05, momentum=0.1, affine=True, track_running_stats=True)
          )
          (4): VFR(
            (linear): Linear(in_features=60, out_features=60, bias=False)
            (bn): BatchNorm1d(60, eps=1e-05, momentum=0.1, affine=True, track_running_stats=True)
          )
          (5): VFR(
            (linear): Linear(in_features=60, out_features=60, bias=False)
            (bn): BatchNorm1d(60, eps=1e-05, momentum=0.1, affine=True, track_running_stats=True)
          )
          (6): VFR(
            (linear): Linear(in_features=60, out_features=60, bias=False)
            (bn): BatchNorm1d(60, eps=1e-05, momentum=0.1, affine=True, track_running_stats=True)
          )
          (7): VFR(
            (linear): Linear(in_features=60, out_features=60, bias=False)
            (bn): BatchNorm1d(60, eps=1e-05, momentum=0.1, affine=True, track_running_stats=True)
          )
          (8): VFR(
            (linear): Linear(in_features=60, out_features=60, bias=False)
            (bn): BatchNorm1d(60, eps=1e-05, momentum=0.1, affine=True, track_running_stats=True)
          )
          (9): VFR(
            (linear): Linear(in_features=60, out_features=60, bias=False)
            (bn): BatchNorm1d(60, eps=1e-05, momentum=0.1, affine=True, track_running_stats=True)
          )
          (10): VFR(
            (linear): Linear(in_features=60, out_features=60, bias=False)
            (bn): BatchNorm1d(60, eps=1e-05, momentum=0.1, affine=True, track_running_stats=True)
          )
          (11): VFR(
            (linear): Linear(in_features=60, out_features=60, bias=False)
            (bn): BatchNorm1d(60, eps=1e-05, momentum=0.1, affine=True, track_running_stats=True)
          )
          (12): VFR(
            (linear): Linear(in_features=60, out_features=60, bias=False)
            (bn): BatchNorm1d(60, eps=1e-05, momentum=0.1, affine=True, track_running_stats=True)
          )
          (13): VFR(
            (linear): Linear(in_features=60, out_features=60, bias=False)
            (bn): BatchNorm1d(60, eps=1e-05, momentum=0.1, affine=True, track_running_stats=True)
          )
          (14): VFR(
            (linear): Linear(in_features=60, out_features=60, bias=False)
            (bn): BatchNorm1d(60, eps=1e-05, momentum=0.1, affine=True, track_running_stats=True)
          )
          (15): VFR(
            (linear): Linear(in_features=60, out_features=60, bias=False)
            (bn): BatchNorm1d(60, eps=1e-05, momentum=0.1, affine=True, track_running_stats=True)
          )
          (16): VFR(
            (linear): Linear(in_features=60, out_features=60, bias=False)
            (bn): BatchNorm1d(60, eps=1e-05, momentum=0.1, affine=True, track_running_stats=True)
          )
          (17): VFR(
            (linear): Linear(in_features=60, out_features=60, bias=False)
            (bn): BatchNorm1d(60, eps=1e-05, momentum=0.1, affine=True, track_running_stats=True)
          )
          (18): VFR(
            (linear): Linear(in_features=60, out_features=60, bias=False)
            (bn): BatchNorm1d(60, eps=1e-05, momentum=0.1, affine=True, track_running_stats=True)
          )
          (19): VFR(
            (linear): Linear(in_features=60, out_features=60, bias=False)
            (bn): BatchNorm1d(60, eps=1e-05, momentum=0.1, affine=True, track_running_stats=True)
          )
        )
        (mlp): FFN(
          (ffn): Sequential(
            (0): Linear(in_features=60, out_features=120, bias=True)
            (1): ReLU()
            (2): Linear(in_features=120, out_features=60, bias=False)
            (3): BatchNorm1d(60, eps=1e-05, momentum=0.1, affine=True, track_running_stats=True)
          )
        )
        (FFNs): ModuleList(
          (0): FFN(
            (ffn): Sequential(
              (0): Linear(in_features=60, out_features=120, bias=True)
              (1): ReLU()
              (2): Linear(in_features=120, out_features=60, bias=False)
              (3): BatchNorm1d(60, eps=1e-05, momentum=0.1, affine=True, track_running_stats=True)
            )
          )
          (1): FFN(
            (ffn): Sequential(
              (0): Linear(in_features=60, out_features=120, bias=True)
              (1): ReLU()
              (2): Linear(in_features=120, out_features=60, bias=False)
              (3): BatchNorm1d(60, eps=1e-05, momentum=0.1, affine=True, track_running_stats=True)
            )
          )
          (2): FFN(
            (ffn): Sequential(
              (0): Linear(in_features=60, out_features=120, bias=True)
              (1): ReLU()
              (2): Linear(in_features=120, out_features=60, bias=False)
              (3): BatchNorm1d(60, eps=1e-05, momentum=0.1, affine=True, track_running_stats=True)
            )
          )
          (3): FFN(
            (ffn): Sequential(
              (0): Linear(in_features=60, out_features=120, bias=True)
              (1): ReLU()
              (2): Linear(in_features=120, out_features=60, bias=False)
              (3): BatchNorm1d(60, eps=1e-05, momentum=0.1, affine=True, track_running_stats=True)
            )
          )
          (4): FFN(
            (ffn): Sequential(
              (0): Linear(in_features=60, out_features=120, bias=True)
              (1): ReLU()
              (2): Linear(in_features=120, out_features=60, bias=False)
              (3): BatchNorm1d(60, eps=1e-05, momentum=0.1, affine=True, track_running_stats=True)
            )
          )
          (5): FFN(
            (ffn): Sequential(
              (0): Linear(in_features=60, out_features=120, bias=True)
              (1): ReLU()
              (2): Linear(in_features=120, out_features=60, bias=False)
              (3): BatchNorm1d(60, eps=1e-05, momentum=0.1, affine=True, track_running_stats=True)
            )
          )
          (6): FFN(
            (ffn): Sequential(
              (0): Linear(in_features=60, out_features=120, bias=True)
              (1): ReLU()
              (2): Linear(in_features=120, out_features=60, bias=False)
              (3): BatchNorm1d(60, eps=1e-05, momentum=0.1, affine=True, track_running_stats=True)
            )
          )
          (7): FFN(
            (ffn): Sequential(
              (0): Linear(in_features=60, out_features=120, bias=True)
              (1): ReLU()
              (2): Linear(in_features=120, out_features=60, bias=False)
              (3): BatchNorm1d(60, eps=1e-05, momentum=0.1, affine=True, track_running_stats=True)
            )
          )
          (8): FFN(
            (ffn): Sequential(
              (0): Linear(in_features=60, out_features=120, bias=True)
              (1): ReLU()
              (2): Linear(in_features=120, out_features=60, bias=False)
              (3): BatchNorm1d(60, eps=1e-05, momentum=0.1, affine=True, track_running_stats=True)
            )
          )
          (9): FFN(
            (ffn): Sequential(
              (0): Linear(in_features=60, out_features=120, bias=True)
              (1): ReLU()
              (2): Linear(in_features=120, out_features=60, bias=False)
              (3): BatchNorm1d(60, eps=1e-05, momentum=0.1, affine=True, track_running_stats=True)
            )
          )
          (10): FFN(
            (ffn): Sequential(
              (0): Linear(in_features=60, out_features=120, bias=True)
              (1): ReLU()
              (2): Linear(in_features=120, out_features=60, bias=False)
              (3): BatchNorm1d(60, eps=1e-05, momentum=0.1, affine=True, track_running_stats=True)
            )
          )
          (11): FFN(
            (ffn): Sequential(
              (0): Linear(in_features=60, out_features=120, bias=True)
              (1): ReLU()
              (2): Linear(in_features=120, out_features=60, bias=False)
              (3): BatchNorm1d(60, eps=1e-05, momentum=0.1, affine=True, track_running_stats=True)
            )
          )
          (12): FFN(
            (ffn): Sequential(
              (0): Linear(in_features=60, out_features=120, bias=True)
              (1): ReLU()
              (2): Linear(in_features=120, out_features=60, bias=False)
              (3): BatchNorm1d(60, eps=1e-05, momentum=0.1, affine=True, track_running_stats=True)
            )
          )
          (13): FFN(
            (ffn): Sequential(
              (0): Linear(in_features=60, out_features=120, bias=True)
              (1): ReLU()
              (2): Linear(in_features=120, out_features=60, bias=False)
              (3): BatchNorm1d(60, eps=1e-05, momentum=0.1, affine=True, track_running_stats=True)
            )
          )
          (14): FFN(
            (ffn): Sequential(
              (0): Linear(in_features=60, out_features=120, bias=True)
              (1): ReLU()
              (2): Linear(in_features=120, out_features=60, bias=False)
              (3): BatchNorm1d(60, eps=1e-05, momentum=0.1, affine=True, track_running_stats=True)
            )
          )
          (15): FFN(
            (ffn): Sequential(
              (0): Linear(in_features=60, out_features=120, bias=True)
              (1): ReLU()
              (2): Linear(in_features=120, out_features=60, bias=False)
              (3): BatchNorm1d(60, eps=1e-05, momentum=0.1, affine=True, track_running_stats=True)
            )
          )
          (16): FFN(
            (ffn): Sequential(
              (0): Linear(in_features=60, out_features=120, bias=True)
              (1): ReLU()
              (2): Linear(in_features=120, out_features=60, bias=False)
              (3): BatchNorm1d(60, eps=1e-05, momentum=0.1, affine=True, track_running_stats=True)
            )
          )
          (17): FFN(
            (ffn): Sequential(
              (0): Linear(in_features=60, out_features=120, bias=True)
              (1): ReLU()
              (2): Linear(in_features=120, out_features=60, bias=False)
              (3): BatchNorm1d(60, eps=1e-05, momentum=0.1, affine=True, track_running_stats=True)
            )
          )
          (18): FFN(
            (ffn): Sequential(
              (0): Linear(in_features=60, out_features=120, bias=True)
              (1): ReLU()
              (2): Linear(in_features=120, out_features=60, bias=False)
              (3): BatchNorm1d(60, eps=1e-05, momentum=0.1, affine=True, track_running_stats=True)
            )
          )
          (19): FFN(
            (ffn): Sequential(
              (0): Linear(in_features=60, out_features=120, bias=True)
              (1): ReLU()
              (2): Linear(in_features=120, out_features=60, bias=False)
              (3): BatchNorm1d(60, eps=1e-05, momentum=0.1, affine=True, track_running_stats=True)
            )
          )
        )
        (drop_paths): ModuleList(
          (0): DropPath(drop_prob=0.000)
          (1): DropPath(drop_prob=0.005)
          (2): DropPath(drop_prob=0.011)
          (3): DropPath(drop_prob=0.016)
          (4): DropPath(drop_prob=0.021)
          (5): DropPath(drop_prob=0.026)
          (6): DropPath(drop_prob=0.032)
…
          (7): DropPath(drop_prob=0.037)
          (8): DropPath(drop_prob=0.042)
          (9): DropPath(drop_prob=0.047)
          (10): DropPath(drop_prob=0.053)
          (11): DropPath(drop_prob=0.058)
          (12): DropPath(drop_prob=0.063)
          (13): DropPath(drop_prob=0.068)
          (14): DropPath(drop_prob=0.074)
          (15): DropPath(drop_prob=0.079)
          (16): DropPath(drop_prob=0.084)
          (17): DropPath(drop_prob=0.089)
          (18): DropPath(drop_prob=0.095)
          (19): DropPath(drop_prob=0.100)
        )
      )
    )
  )
  (score_net): ScoreNet(
    (conv_p): Conv1d(63, 128, kernel_size=(1,), stride=(1,))
    (blocks): ModuleList(
      (0): ResnetBlockConv1d(
        (bn_0): BatchNorm1d(128, eps=1e-05, momentum=0.1, affine=True, track_running_stats=True)
        (bn_1): BatchNorm1d(128, eps=1e-05, momentum=0.1, affine=True, track_running_stats=True)
        (fc_0): Conv1d(128, 128, kernel_size=(1,), stride=(1,))
        (fc_1): Conv1d(128, 128, kernel_size=(1,), stride=(1,))
        (fc_c): Conv1d(63, 128, kernel_size=(1,), stride=(1,))
        (actvn): ReLU()
      )
      (1): ResnetBlockConv1d(
        (bn_0): BatchNorm1d(128, eps=1e-05, momentum=0.1, affine=True, track_running_stats=True)
        (bn_1): BatchNorm1d(128, eps=1e-05, momentum=0.1, affine=True, track_running_stats=True)
        (fc_0): Conv1d(128, 128, kernel_size=(1,), stride=(1,))
        (fc_1): Conv1d(128, 128, kernel_size=(1,), stride=(1,))
        (fc_c): Conv1d(63, 128, kernel_size=(1,), stride=(1,))
        (actvn): ReLU()
      )
      (2): ResnetBlockConv1d(
        (bn_0): BatchNorm1d(128, eps=1e-05, momentum=0.1, affine=True, track_running_stats=True)
        (bn_1): BatchNorm1d(128, eps=1e-05, momentum=0.1, affine=True, track_running_stats=True)
        (fc_0): Conv1d(128, 128, kernel_size=(1,), stride=(1,))
        (fc_1): Conv1d(128, 128, kernel_size=(1,), stride=(1,))
        (fc_c): Conv1d(63, 128, kernel_size=(1,), stride=(1,))
        (actvn): ReLU()
      )
      (3): ResnetBlockConv1d(
        (bn_0): BatchNorm1d(128, eps=1e-05, momentum=0.1, affine=True, track_running_stats=True)
        (bn_1): BatchNorm1d(128, eps=1e-05, momentum=0.1, affine=True, track_running_stats=True)
        (fc_0): Conv1d(128, 128, kernel_size=(1,), stride=(1,))
        (fc_1): Conv1d(128, 128, kernel_size=(1,), stride=(1,))
        (fc_c): Conv1d(63, 128, kernel_size=(1,), stride=(1,))
        (actvn): ReLU()
      )
    )
    (bn_out): BatchNorm1d(128, eps=1e-05, momentum=0.1, affine=True, track_running_stats=True)
    (conv_out): Conv1d(128, 3, kernel_size=(1,), stride=(1,))
    (actvn_out): ReLU()
    (attn_layers): ModuleList(
      (0): SA_Layer(
        (q_conv): Conv1d(128, 32, kernel_size=(1,), stride=(1,), bias=False)
        (k_conv): Conv1d(128, 32, kernel_size=(1,), stride=(1,), bias=False)
        (v_conv): Conv1d(128, 128, kernel_size=(1,), stride=(1,))
        (trans_conv): Conv1d(128, 128, kernel_size=(1,), stride=(1,))
        (after_norm): BatchNorm1d(128, eps=1e-05, momentum=0.1, affine=True, track_running_stats=True)
        (act): ReLU()
        (softmax): Softmax(dim=-1)
      )
      (1): SA_Layer(
        (q_conv): Conv1d(128, 32, kernel_size=(1,), stride=(1,), bias=False)
        (k_conv): Conv1d(128, 32, kernel_size=(1,), stride=(1,), bias=False)
        (v_conv): Conv1d(128, 128, kernel_size=(1,), stride=(1,))
        (trans_conv): Conv1d(128, 128, kernel_size=(1,), stride=(1,))
        (after_norm): BatchNorm1d(128, eps=1e-05, momentum=0.1, affine=True, track_running_stats=True)
        (act): ReLU()
        (softmax): Softmax(dim=-1)
      )
      (2): SA_Layer(
        (q_conv): Conv1d(128, 32, kernel_size=(1,), stride=(1,), bias=False)
        (k_conv): Conv1d(128, 32, kernel_size=(1,), stride=(1,), bias=False)
        (v_conv): Conv1d(128, 128, kernel_size=(1,), stride=(1,))
        (trans_conv): Conv1d(128, 128, kernel_size=(1,), stride=(1,))
        (after_norm): BatchNorm1d(128, eps=1e-05, momentum=0.1, affine=True, track_running_stats=True)
        (act): ReLU()
        (softmax): Softmax(dim=-1)
      )
      (3): SA_Layer(
        (q_conv): Conv1d(128, 32, kernel_size=(1,), stride=(1,), bias=False)
        (k_conv): Conv1d(128, 32, kernel_size=(1,), stride=(1,), bias=False)
        (v_conv): Conv1d(128, 128, kernel_size=(1,), stride=(1,))
        (trans_conv): Conv1d(128, 128, kernel_size=(1,), stride=(1,))
        (after_norm): BatchNorm1d(128, eps=1e-05, momentum=0.1, affine=True, track_running_stats=True)
        (act): ReLU()
        (softmax): Softmax(dim=-1)
      )
    )
  )
)
[2025-07-04 15:51:38,312::train::INFO] Start training...
[2025-07-04 15:51:42,742::train::INFO] [Train] Iter 0001 | Loss 25.729717 | Grad 844.852173
[2025-07-04 15:51:43,257::train::INFO] [Train] Iter 0002 | Loss 14.476393 | Grad 422.548340
[2025-07-04 15:51:43,761::train::INFO] [Train] Iter 0003 | Loss 12.830872 | Grad 447.627808
…
